_________________________________________________________________
Layer (type)                 Output Shape              Param #   
=================================================================
conv2d_1 (Conv2D)            (None, 218, 178, 20)      1520      
_________________________________________________________________
activation_1 (Activation)    (None, 218, 178, 20)      0         
_________________________________________________________________
max_pooling2d_1 (MaxPooling2 (None, 109, 89, 20)       0         
_________________________________________________________________
conv2d_2 (Conv2D)            (None, 109, 89, 50)       25050     
_________________________________________________________________
activation_2 (Activation)    (None, 109, 89, 50)       0         
_________________________________________________________________
max_pooling2d_2 (MaxPooling2 (None, 54, 44, 50)        0         
_________________________________________________________________
flatten_1 (Flatten)          (None, 118800)            0         
_________________________________________________________________
dropout_1 (Dropout)          (None, 118800)            0         
_________________________________________________________________
dense_1 (Dense)              (None, 700)               83160700  
_________________________________________________________________
activation_3 (Activation)    (None, 700)               0         
_________________________________________________________________
dense_2 (Dense)              (None, 2)                 1402      
_________________________________________________________________
activation_4 (Activation)    (None, 2)                 0         
=================================================================
Total params: 83,188,672
Trainable params: 83,188,672
Non-trainable params: 0
_________________________________________________________________
Epoch 1/30

 1/18 [>.............................] - ETA: 5:42 - loss: 0.6989 - acc: 0.5500
 2/18 [==>...........................] - ETA: 2:44 - loss: 0.6880 - acc: 0.5500
 3/18 [====>.........................] - ETA: 1:45 - loss: 0.6867 - acc: 0.5500
…
