_________________________________________________________________
Layer (type)                 Output Shape              Param #   
=================================================================
conv2d_1 (Conv2D)            (None, 218, 178, 30)      2280      
_________________________________________________________________
activation_1 (Activation)    (None, 218, 178, 30)      0         
_________________________________________________________________
max_pooling2d_1 (MaxPooling2 (None, 109, 89, 30)       0         
_________________________________________________________________
conv2d_2 (Conv2D)            (None, 109, 89, 60)       45060     
_________________________________________________________________
activation_2 (Activation)    (None, 109, 89, 60)       0         
_________________________________________________________________
max_pooling2d_2 (MaxPooling2 (None, 54, 44, 60)        0         
_________________________________________________________________
flatten_1 (Flatten)          (None, 142560)            0         
_________________________________________________________________
dropout_1 (Dropout)          (None, 142560)            0         
_________________________________________________________________
dense_1 (Dense)              (None, 512)               72991232  
_________________________________________________________________
activation_3 (Activation)    (None, 512)               0         
_________________________________________________________________
dense_2 (Dense)              (None, 2)                 1026      
_________________________________________________________________
activation_4 (Activation)    (None, 2)                 0         
=================================================================
Total params: 73,039,598
Trainable params: 73,039,598
Non-trainable params: 0
_________________________________________________________________
Epoch 1/25

 1/37 [..............................] - ETA: 1:59 - loss: 0.6700 - acc: 0.6000
 2/37 [>.............................] - ETA: 1:15 - loss: 0.6581 - acc: 0.6500
 3/37 [=>............................] - ETA: 53s - loss: 0.6657 - acc: 0.6000 
…
