_________________________________________________________________
Layer (type)                 Output Shape              Param #   
=================================================================
conv2d_1 (Conv2D)            (None, 218, 178, 20)      1520      
_________________________________________________________________
activation_1 (Activation)    (None, 218, 178, 20)      0         
_________________________________________________________________
max_pooling2d_1 (MaxPooling2 (None, 109, 89, 20)       0         
_________________________________________________________________
conv2d_2 (Conv2D)            (None, 109, 89, 50)       25050     
_________________________________________________________________
activation_2 (Activation)    (None, 109, 89, 50)       0         
_________________________________________________________________
max_pooling2d_2 (MaxPooling2 (None, 54, 44, 50)        0         
_________________________________________________________________
flatten_1 (Flatten)          (None, 118800)            0         
_________________________________________________________________
dropout_1 (Dropout)          (None, 118800)            0         
_________________________________________________________________
dense_1 (Dense)              (None, 512)               60826112  
_________________________________________________________________
activation_3 (Activation)    (None, 512)               0         
_________________________________________________________________
dense_2 (Dense)              (None, 2)                 1026      
_________________________________________________________________
activation_4 (Activation)    (None, 2)                 0         
=================================================================
Total params: 60,853,708
Trainable params: 60,853,708
Non-trainable params: 0
_________________________________________________________________
Epoch 1/25

 1/37 [..............................] - ETA: 1:43 - loss: 0.7251 - acc: 0.5500
 2/37 [>.............................] - ETA: 1:03 - loss: 0.7005 - acc: 0.6250
 3/37 [=>............................] - ETA: 45s - loss: 0.6841 - acc: 0.6500 
…
