_________________________________________________________________
Layer (type)                 Output Shape              Param #   
=================================================================
conv2d_1 (Conv2D)            (None, 218, 178, 20)      1520      
_________________________________________________________________
activation_1 (Activation)    (None, 218, 178, 20)      0         
_________________________________________________________________
max_pooling2d_1 (MaxPooling2 (None, 109, 89, 20)       0         
_________________________________________________________________
conv2d_2 (Conv2D)            (None, 109, 89, 50)       25050     
_________________________________________________________________
activation_2 (Activation)    (None, 109, 89, 50)       0         
_________________________________________________________________
max_pooling2d_2 (MaxPooling2 (None, 54, 44, 50)        0         
_________________________________________________________________
flatten_1 (Flatten)          (None, 118800)            0         
_________________________________________________________________
dropout_1 (Dropout)          (None, 118800)            0         
_________________________________________________________________
dense_1 (Dense)              (None, 800)               95040800  
_________________________________________________________________
activation_3 (Activation)    (None, 800)               0         
_________________________________________________________________
dense_2 (Dense)              (None, 2)                 1602      
_________________________________________________________________
activation_4 (Activation)    (None, 2)                 0         
=================================================================
Total params: 95,068,972
Trainable params: 95,068,972
Non-trainable params: 0
_________________________________________________________________
Epoch 1/30

  1/150 [..............................] - ETA: 24:13 - loss: 0.6876 - acc: 0.7000
  2/150 [..............................] - ETA: 12:32 - loss: 0.6912 - acc: 0.5500
  3/150 [..............................] - ETA: 8:36 - loss: 0.6917 - acc: 0.5333 
…
